{
 "architecture": "Denoiser(\n  (en_conv1): Conv2d(3, 128, kernel_size=(3, 3), stride=(1, 1), padding=(1, 1))\n  (en_conv2): Conv2d(128, 64, kernel_size=(3, 3), stride=(1, 1), padding=(1, 1))\n  (en_conv3): Conv2d(64, 32, kernel_size=(3, 3), stride=(1, 1), padding=(1, 1))\n  (relu): ReLU()\n  (en_2hid): Linear(in_features=524288, out_features=250, bias=True)\n  (en_hid2mu): Linear(in_features=250, out_features=20, bias=True)\n  (en_hid_2sigma): Linear(in_features=250, out_features=20, bias=True)\n  (de_hid2out): Linear(in_features=20, out_features=250, bias=True)\n  (de_out2hid): Linear(in_features=250, out_features=524288, bias=True)\n  (de_conv1): ConvTranspose2d(32, 64, kernel_size=(3, 3), stride=(1, 1), padding=(1, 1))\n  (de_conv2): ConvTranspose2d(64, 128, kernel_size=(3, 3), stride=(1, 1), padding=(1, 1))\n  (de_conv3): ConvTranspose2d(128, 3, kernel_size=(3, 3), stride=(1, 1), padding=(1, 1))\n)",
 "experiment": "exp1",
 "hyperparameter": {
  "epoch": 20,
  "lr": 1e-05,
  "batch_size": 25,
  "workers": 2,
  "device": "cpu"
 },
 "loss": 41983.3515625,
 "epoch": 2
}